BackEnd/network.onnx (onnx, 8910 bytes, 2 tensors)

biases f8 [1]
-0.9058123600637819
00000000: 2b2b d933 6afc ecbf

onnx::MatMul_13 f8 [1024, 1]
-2.572521400063918 -0.9805059617376033 0.04295474685188167 -0.023210828977654786 -0.51620624769016 0.14330999719581464 0.035744142962564764 0.30883926642691517
0.5641086077046944 0.709477704029763 -0.12356967540815728 0.2959199777894046 -0.5974634644248801 -0.6307465782822136 -0.20835365668814212 -0.7418618485943362
-0.2086771568380928 -0.1613116981848361 -0.3262295775030108 0.3412815015683583 -0.4792741034467209 -0.5859323112309509 -0.15434883353068798 0.03056828021292257
0.3311702383791425 0.32107484283897625 -0.23414854895525236 -0.6304156929003455 -0.21315305179997496 -0.1211930604020988 -1.248721634130375 -2.3189549126803106
-1.5113315804111318 -1.2832248378420599 -0.14563350893373722 -0.9622617014290288 -0.859143033877412 -0.1504220675037004 -1.260045137965804 -0.6073356382136995
-0.4365797680781154 -0.11872477037664307 0.2841607789475148 0.41595850052059685 -0.15814362705274704 -0.4252385099096639 0.22300379051012753 -0.46471885592798057
-0.36525696319141737 -0.08677564181576264 -0.3054964268234461 0.08039130937986824 -0.2974043706204808 -1.116775503968375 -0.668797084214962 -0.9955759081477191
-0.2666139497151818 -0.3667769029141082 -0.8047293934529648 -0.7996157066792585 -0.6759911525527836 0.0662224594455638 -0.9844125603432603 -1.3198520772585747
0.36514399420663834 0.345147602650917 0.4787278675106159 -0.480267863275503 -0.46665062640419636 0.5949282952481694 -0.1610272353901912 0.15057601815904012
-0.2141632159249383 -0.515584895050032 0.48477548947362165 1.095078609766841 0.07898931430180021 -0.5474303089642936 0.6404483187334263 0.5008408985643112
0.20894089910232017 0.23703454349922626 0.2678218792860113 0.43051355576509487 0.9675514874050983 0.44814317695507494 -0.10731066179181294 -0.1170276954915524
1.005644331560798 0.18841205680487078 -0.34336253508777814 -0.4288179143179087 -0.017832096562857048 0.30150379516168124 -0.22524179538336453 -0.04003959623270616
-0.021394431815105138 -0.2871879048989622 -0.7254558352609304 -0.3778495227143394 -0.08860315237535683 0.5761593926105497 -0.18565392487578247 -0.23121720985759997
-0.7040568139192102 -0.6885203573949468 -0.04344659497402508 0.5052431787925671 -0.2325925117605561 -0.37130407195248344 0.6279617950443201 0.37108897152001336
0.10048746413277966 -0.259700340184881 -0.3304173451712745 0.09099965335415428 0.7363827183837585 0.3867586603868146 -0.6075487980087961 -0.3824830186273893
0.576732598224395 -0.09778901562049884 -0.4210927989455688 -0.5780522533587671 0.032740213261433476 0.16748595473896588 -0.0822994234413097 0.5148423485997295
0.7751736533837085 0.5134243910933933 -0.16065552363672703 0.6099774847026902 0.49252860637188184 0.24799799495335856 -0.6250400257071386 -0.5493619247028146
-0.3518762338542494 -0.42963980755872133 0.5800736713418339 0.2641223930610016 -0.0925459186431363 -0.28000305786837987 -0.4221378930288204 -0.5680906526664266
-0.10409317352961976 -0.22325757573164598 0.5760628232857247 -0.7395628279374715 -0.5969044325515414 -0.2731125426615264 -0.8182725675290848 -1.007656706438576
-0.5691417740341189 -0.8115123042370993 -0.687819861176861 -0.6302260950988755 -0.8301870437974953 -0.13004400504012395 0.23729701512464352 0.934216792954758
0.5761141900694322 -0.14305348130307322 -0.6078691214606324 -0.12397908477786582 -0.04928339877712706 -0.7738812915414701 -0.6510054988789558 -0.6103743513419911
-0.4484496447271281 -0.5184418818569634 0.3817674388070578 -0.20034827479709305 -0.18385785096767365 0.3177893321529543 0.4116262449697089 -0.4595265773925213
-0.7628411085357764 -0.19303888132174724 0.41762482365160647 -0.49076537326268355 -0.45354544710169375 0.10547830234476088 0.6095958815357272 -0.12197612280980565
-0.19083335742497803 0.24718343190632286 0.7530797494376891 -0.13319146872710622 -0.5517244211810947 0.06987110088897687 0.053427634835284434 0.8176662058125029
1.2468094768498807 0.22999846357246245 -0.3891968794225624 0.3053552498500427 0.06974664317167018 -0.4180070244847945 -0.1643097359724104 0.03205453478233539
-0.21076601074416654 -0.6133088759028381 -0.1468077662405242 -0.5400582827929202 -0.04376150810110444 0.7211462044546386 0.59186011140335 0.03616893514661736
-0.44431418854425364 -0.07609310247587289 0.6909611700672971 0.25481939959945016 0.45869655712717294 0.48435303985851175 0.11567594546987674 0.06496873071485983
-0.10210410541364871 -0.20599692561814428 0.1629311392325535 -0.8587230112723153 -0.04258246410575817 1.0374541588128046 0.5447843315013925 0.9818022082900691
1.1739477034715788 -0.015000808874941863 -0.19562239554199615 0.44848915368712805 -0.5048088886339788 -0.11246394896547562 -0.5648812367377964 -0.41647281397310226
0.20266757786165956 0.884993797981614 0.7012659870948897 -0.41013533148771447 0.2607171181979585 0.3382972358875161 0.24370995631254477 -0.35262868421215726
0.12397894431155901 0.41850870556715214 0.5410044753673202 -0.43306531657646835 -0.549519320781125 -0.6864713523095586 0.0008463204680077627 0.3164659968583616
-0.8158940232699111 -0.16809876813322575 0.08945904446023184 -0.6318041097639048 0.03379489780207625 0.4360925324643577 -0.37984074313491845 -0.056215328522775984
00000000: fc46 8c19 8694 04c0 e845 e609 4e60 efbf
00000010: 09a3 df21 2afe a53f 9a01 7d5d 94c4 97bf
00000020: 5d3e faf6 c284 e0bf 0dac 9263 fb57 c23f
00000030: 8d74 186a 0e4d a23f 028d 41c5 05c4 d33f
00000040: ee7a af7e 2d0d e23f 6791 0196 0ab4 e63f
00000050: 64c6 a722 43a2 bfbf a0aa b558 5af0 d23f
00000060: 9f4f 08b3 6b1e e3bf 0127 b972 132f e4bf
00000070: 6921 bd26 55ab cabf e09b 3b0f 55bd e7bf
00000080: 0a5c 05de eeb5 cabf 8e42 159a dca5 c4bf
00000090: c740 9705 f2e0 d4bf d7d0 fd5d 8ed7 d53f
000000a0: 93e5 074a 6dac debf 1803 4d1e f5bf e2bf
000000b0: a953 18dc b3c1 c3bf c0e4 3c8f 4a4d 9f3f
000000c0: e2cd cfa7 e431 d53f 98f3 637f 7d8c d43f
000000d0: c796 1564 94f8 cdbf 9a8c fc87 5d2c e4bf
000000e0: 9a01 4365 9948 cbbf e3dd ed26 8206 bfbf
000000f0: ba5c 4689 c3fa f3bf 3ee2 b63b 388d 02c0
00000100: e471 f405 6a2e f8bf 1225 7fc4 1688 f4bf
00000110: 663b 096b 1ea4 c2bf 8397 3a0d d9ca eebf
00000120: dcde 2288 197e ebbf 6636 43c2 0741 c3bf
00000130: 40c0 3017 2529 f4bf 0f57 fa25 4b6f e3bf
00000140: c868 7f44 ecf0 dbbf 9727 fe1d bf64 bebf
00000150: 66ab 18b1 b02f d23f 99aa 0e67 109f da3f
00000160: 5295 21e5 0c3e c4bf 2df4 4395 1b37 dbbf
00000170: 1401 9061 638b cc3f c2e4 0228 f4bd ddbf
00000180: 49c7 e2bd 5e60 d7bf 0428 b0af ed36 b6bf
00000190: 8719 90e2 408d d3bf 8e4d ab5c 8694 b43f
000001a0: c927 6057 ac08 d3bf 184a a8fd 4fde f1bf
000001b0: 22a1 8b24 c966 e5bf 2ec2 c501 c2db efbf
000001c0: 34c8 abf4 3310 d1bf c96e bcd4 4579 d7bf
000001d0: 3355 60db 57c0 e9bf 61c5 b1ad 7396 e9bf
000001e0: 892f 9332 b8a1 e5bf 6f52 9481 f4f3 b03f
000001f0: 0e45 0ec5 4e80 efbf c421 3636 1d1e f5bf
00000200: 5cb1 5cea 845e d73f 676c 6bf8 e516 d63f
00000210: 2815 a935 7aa3 de3f 2fa3 856b b5bc debf
00000220: 8d17 c496 9add ddbf 18ca 7110 a709 e33f
00000230: b211 e25a 8a9c c4bf 9109 c730 1346 c33f
00000240: 9aaf 3344 b369 cbbf b9a5 d1e4 ab7f e0bf
00000250: 2143 4cc6 8f06 df3f b2f6 f725 7185 f13f
00000260: e7e1 a8c9 a438 b43f f8e7 3a91 8c84 e1bf
00000270: bf9f f778 8d7e e43f b1a7 fa7d e306 e03f
00000280: 8c7c 384c 93be ca3f d8fc 2cde 2557 ce3f
00000290: 8af2 2b61 fe23 d13f 72ba 9fba 888d db3f
000002a0: d43b 7389 2ef6 ee3f 47a5 3cb8 60ae dc3f
000002b0: a16f e826 b678 bbbf 74ca dcec 86f5 bdbf
000002c0: ed61 b782 1e17 f03f e612 13e3 e21d c83f
000002d0: 0aea b7da a6f9 d5bf 5ccc 7bb1 c071 dbbf
000002e0: 6df1 39be 9342 92bf 28b7 f592 d64b d33f
000002f0: 7093 6e20 b9d4 ccbf 12a2 bae8 1180 a4bf
00000300: bf79 d903 6ce8 95bf 5e42 d660 4961 d2bf
00000310: fc6a e427 ef36 e7bf cb81 b7c3 af2e d8bf
00000320: 4550 c639 b2ae b6bf 0675 91d2 e56f e23f
00000330: 6096 dbff 81c3 c7bf 682d 4e89 8698 cdbf
00000340: 0be3 c927 a287 e6bf 6687 34d8 5b08 e6bf
00000350: 076e 12d1 a13e a6bf f41d 2ebe f32a e03f
00000360: c12d a767 97c5 cdbf 4115 7a27 72c3 d7bf
00000370: 384a 9b55 4318 e43f 436c 25f5 ebbf d73f
00000380: 09b7 1be4 8bb9 b93f 34aa f62c ee9e d0bf
00000390: 52ac e2ca 8e25 d5bf 587a 1ad7 c04b b73f
000003a0: bf87 997d 7290 e73f ca97 7365 a7c0 d83f
000003b0: 1e80 452d 0a71 e3bf 74eb 110e 9a7a d8bf
000003c0: f725 fdeb 9774 e23f e381 ff6f b308 b9bf
000003d0: 3b59 0336 2ff3 dabf a6c2 7170 677f e2bf
000003e0: cc9f 7142 53c3 a03f 3454 1205 2e70 c53f
000003f0: 10fb 2834 9311 b5bf 0a9d 3aa9 9679 e03f
00000400: af1f 40fa 38ce e83f f4df 16fd f86d e03f
00000410: fe82 f835 5c90 c4bf 4805 8380 ef84 e33f
00000420: 538c 2db4 9685 df3f fe2c e6f6 65be cf3f
00000430: 154d a3f0 5300 e4bf bd84 8875 5f94 e1bf
00000440: 8c31 29e5 2385 d6bf 7490 a1f6 377f dbbf
00000450: ede1 f5a8 f68f e23f 0aa6 159c 61e7 d03f
00000460: 0e57 f3dd 16b1 b7bf acc7 14f2 91eb d1bf
00000470: 2783 3da7 4e04 dbbf f9b2 cb72 cc2d e2bf
00000480: ffeb 0ba8 d9a5 babf 4903 2d49 b493 ccbf
00000490: 0384 4e4d 1b6f e23f d684 eaa9 7faa e7bf
000004a0: 8eae 1453 d719 e3bf 4cf4 b607 ad7a d1bf
000004b0: 3b0b 98f3 492f eabf e8fa 7ba3 5c1f f0bf
000004c0: 6272 48cf 6836 e2bf 8aff dfa6 e8f7 e9bf
000004d0: 7367 29cc 9e02 e6bf 7522 71ea cf2a e4bf
000004e0: 8b8a 556b e490 eabf a916 582e 48a5 c0bf
000004f0: 9c0a b3a3 bf5f ce3f 88ab a39d 1ae5 ed3f
00000500: fc82 a306 876f e23f 6648 e393 934f c2bf
00000510: 4e7e 9df1 a973 e3bf 3a4a 82e2 17bd bfbf
00000520: a08b f773 ac3b a9bf f604 c5b2 a2c3 e8bf
00000530: e270 e67b 09d5 e4bf 1798 aaca 2f88 e3bf
00000540: 965f 8023 66b3 dcbf ae79 ee6d 1397 e0bf
00000550: d9a7 16b2 e06e d83f f021 0824 03a5 c9bf
00000560: 9a6e 8270 a788 c7bf ef55 2711 a956 d43f
00000570: e67d 149b 1558 da3f d9cb 6229 e268 ddbf
00000580: d593 a6c1 3169 e8bf f210 1181 7fb5 c8bf
00000590: f035 e577 5dba da3f 9009 0b2b b368 dfbf
000005a0: 544b a37b e306 ddbf 1a23 0243 a000 bb3f
000005b0: 941c df38 cf81 e33f 296a 5cc2 d339 bfbf
000005c0: fe25 903a 3a6d c8bf 204a 13ea b4a3 cf3f
000005d0: 06ac e3b3 3a19 e83f 2502 2505 6b0c c1bf
000005e0: 1913 2cf9 b9a7 e1bf a9f0 408d 12e3 b13f
000005f0: 3dee a3f0 dd5a ab3f 974a a051 522a ea3f
00000600: 169c 767e eef2 f33f c444 96f3 9670 cd3f
00000610: 70cf 3407 9ae8 d8bf 5424 f1be f08a d33f
00000620: 4c98 6d7f eada b13f 0945 ea88 a0c0 dabf
00000630: 203c 35f7 1908 c5bf 8841 28b5 7369 a03f
00000640: 1396 a071 61fa cabf bf2c 8bef 39a0 e3bf
00000650: 7da3 66cd 98ca c2bf c3f1 d04e 2848 e1bf
00000660: 1d5b 3c8c e867 a6bf ec8c 7834 a113 e73f
00000670: 0719 c99d 84f0 e23f b3f6 2b13 bc84 a23f
00000680: f490 3cc7 a46f dcbf e2c5 956a d67a b3bf
00000690: 82d6 8799 5a1c e63f a59f ea06 f64e d03f
000006a0: 4689 e9cd 485b dd3f 8245 7ae4 a3ff de3f
000006b0: ab1c ba52 f09c bd3f 0dd6 ae6d caa1 b03f
000006c0: 23f9 89a1 7e23 babf f3a0 4d75 1b5e cabf
000006d0: d37d 4075 edda c43f 6b97 37ae a87a ebbf
000006e0: 4045 6f65 5ecd a5bf f633 3388 6999 f03f
000006f0: 987e e58c df6e e13f bbe2 f776 ec6a ef3f
00000700: ecfe 1963 7dc8 f23f 1a5a 407c beb8 8ebf
00000710: 0de9 9b97 270a c9bf 8c9a ecd9 0bb4 dc3f
00000720: aa37 6df8 6427 e0bf a825 c9f6 6fca bcbf
00000730: 3a36 bdd0 8113 e2bf 1501 ec96 7da7 dabf
00000740: d80b 70dd 02f1 c93f bacd 6f83 de51 ec3f
00000750: a9d4 0b5e c570 e63f 6720 eb42 a83f dabf
00000760: eeb9 0ada 96af d03f 79b3 1d73 a9a6 d53f
00000770: 4436 094a e331 cf3f 8fa7 94e6 7791 d6bf
00000780: caf3 3587 15bd bf3f 3c24 e0bc d8c8 da3f
00000790: 2427 169e e84f e13f 9394 ee96 57b7 dbbf
000007a0: 55cd e88a a995 e1bf 31ef f9c4 92f7 e5bf
000007b0: 451e b35d 73bb 4b3f 775f b398 fa40 d43f
000007c0: b546 5ec8 cd1b eabf d7a6 d0ab 4284 c5bf
000007d0: 4cc1 49b6 c9e6 b63f 7b42 9d40 bd37 e4bf
000007e0: d3c4 a999 904d a13f 05b6 3da7 f0e8 db3f
000007f0: dcfa 5c8c 4f4f d8bf 7e14 146b 41c8 acbf
